# Copyright (c) 2018 Bhojpur Consulting Private Limited, India. All rights reserved.
#
# Permission is hereby granted, free of charge, to any person obtaining a copy
# of this software and associated documentation files (the "Software"), to deal
# in the Software without restriction, including without limitation the rights
# to use, copy, modify, merge, publish, distribute, sublicense, and/or sell
# copies of the Software, and to permit persons to whom the Software is
# furnished to do so, subject to the following conditions:
#
# The above copyright notice and this permission notice shall be included in
# all copies or substantial portions of the Software.
#
# THE SOFTWARE IS PROVIDED "AS IS", WITHOUT WARRANTY OF ANY KIND, EXPRESS OR
# IMPLIED, INCLUDING BUT NOT LIMITED TO THE WARRANTIES OF MERCHANTABILITY,
# FITNESS FOR A PARTICULAR PURPOSE AND NONINFRINGEMENT. IN NO EVENT SHALL THE
# AUTHORS OR COPYRIGHT HOLDERS BE LIABLE FOR ANY CLAIM, DAMAGES OR OTHER
# LIABILITY, WHETHER IN AN ACTION OF CONTRACT, TORT OR OTHERWISE, ARISING FROM,
# OUT OF OR IN CONNECTION WITH THE SOFTWARE OR THE USE OR OTHER DEALINGS IN
# THE SOFTWARE.

# parameters
nc: 80  # number of classes
depth_multiple: 1.0  # model depth multiple
width_multiple: 1.0  # layer channel multiple

# anchors
anchors: 3

# YOLOv5 backbone
backbone:
  # [from, number, module, args]
  [ [ -1, 1, Focus, [ 64, 3 ] ],  # 0-P1/2
    [ -1, 1, Conv, [ 128, 3, 2 ] ],  # 1-P2/4
    [ -1, 3, C3, [ 128 ] ],
    [ -1, 1, Conv, [ 256, 3, 2 ] ],  # 3-P3/8
    [ -1, 9, C3, [ 256 ] ],
    [ -1, 1, Conv, [ 512, 3, 2 ] ],  # 5-P4/16
    [ -1, 9, C3, [ 512 ] ],
    [ -1, 1, Conv, [ 768, 3, 2 ] ],  # 7-P5/32
    [ -1, 3, C3, [ 768 ] ],
    [ -1, 1, Conv, [ 1024, 3, 2 ] ],  # 9-P6/64
    [ -1, 1, SPP, [ 1024, [ 3, 5, 7 ] ] ],
    [ -1, 3, C3, [ 1024, False ] ],  # 11
  ]

# YOLOv5 head
head:
  [ [ -1, 1, Conv, [ 768, 1, 1 ] ],
    [ -1, 1, nn.Upsample, [ None, 2, 'nearest' ] ],
    [ [ -1, 8 ], 1, Concat, [ 1 ] ],  # cat backbone P5
    [ -1, 3, C3, [ 768, False ] ],  # 15

    [ -1, 1, Conv, [ 512, 1, 1 ] ],
    [ -1, 1, nn.Upsample, [ None, 2, 'nearest' ] ],
    [ [ -1, 6 ], 1, Concat, [ 1 ] ],  # cat backbone P4
    [ -1, 3, C3, [ 512, False ] ],  # 19

    [ -1, 1, Conv, [ 256, 1, 1 ] ],
    [ -1, 1, nn.Upsample, [ None, 2, 'nearest' ] ],
    [ [ -1, 4 ], 1, Concat, [ 1 ] ],  # cat backbone P3
    [ -1, 3, C3, [ 256, False ] ],  # 23 (P3/8-small)

    [ -1, 1, Conv, [ 256, 3, 2 ] ],
    [ [ -1, 20 ], 1, Concat, [ 1 ] ],  # cat head P4
    [ -1, 3, C3, [ 512, False ] ],  # 26 (P4/16-medium)

    [ -1, 1, Conv, [ 512, 3, 2 ] ],
    [ [ -1, 16 ], 1, Concat, [ 1 ] ],  # cat head P5
    [ -1, 3, C3, [ 768, False ] ],  # 29 (P5/32-large)

    [ -1, 1, Conv, [ 768, 3, 2 ] ],
    [ [ -1, 12 ], 1, Concat, [ 1 ] ],  # cat head P6
    [ -1, 3, C3, [ 1024, False ] ],  # 32 (P5/64-xlarge)

    [ [ 23, 26, 29, 32 ], 1, Detect, [ nc, anchors ] ],  # Detect(P3, P4, P5, P6)
  ]